
Layer (type)                 Output Shape              Param #   
=================================================================
conv2d_9 (Conv2D)            (None, 148, 148, 32)      896       
_________________________________________________________________
max_pooling2d_9 (MaxPooling2 (None, 74, 74, 32)        0         
_________________________________________________________________
conv2d_10 (Conv2D)           (None, 72, 72, 64)        18496     
_________________________________________________________________
max_pooling2d_10 (MaxPooling (None, 36, 36, 64)        0         
_________________________________________________________________
dropout_5 (Dropout)          (None, 36, 36, 64)        0         
_________________________________________________________________
conv2d_11 (Conv2D)           (None, 34, 34, 128)       73856     
_________________________________________________________________
max_pooling2d_11 (MaxPooling (None, 17, 17, 128)       0         
_________________________________________________________________
conv2d_12 (Conv2D)           (None, 15, 15, 128)       147584    
_________________________________________________________________
max_pooling2d_12 (MaxPooling (None, 7, 7, 128)         0         
_________________________________________________________________
dropout_6 (Dropout)          (None, 7, 7, 128)         0         
_________________________________________________________________
flatten_3 (Flatten)          (None, 6272)              0         
_________________________________________________________________
dense_5 (Dense)              (None, 512)               3211776   
_________________________________________________________________
dense_6 (Dense)              (None, 4)                 2052      
=================================================================
Total params: 3,454,660
Trainable params: 3,454,660
Non-trainable params: 0
_________________________________________________________________